…
Number of tasks = 1801
Splitting data with seed 0
Total size = 10,000 | train size = 8,000 | val size = 1,000 | test size = 1,000
Pre-normalizing training targets
Building model 0
Loading mpn parameters from model/test/model_0.pt
Loading pretrained parameter "encoder.encoder.W_i.weight".
Loading pretrained parameter "encoder.encoder.W_h.weight".
Loading pretrained parameter "encoder.encoder.W_o.weight".
Loading pretrained parameter "encoder.encoder.W_o.bias".
MoleculeModel(
  (encoder): MPN(
    (encoder): MPNEncoder(
      (dropout_layer): Dropout(p=0.05, inplace=False)
      (act_func): ReLU()
      (W_i): Linear(in_features=147, out_features=2200, bias=False)
      (W_h): Linear(in_features=2200, out_features=2200, bias=False)
      (W_o): Linear(in_features=2333, out_features=2200, bias=True)
    )
  )
  (encoder_layers): Sequential(
    (0): Linear(in_features=2200, out_features=2048, bias=True)
    (1): ReLU()
    (2): Dropout(p=0.05, inplace=False)
    (3): Linear(in_features=2200, out_features=1024, bias=True)
    (4): ReLU()
    (5): Dropout(p=0.05, inplace=False)
    (6): Linear(in_features=2200, out_features=512, bias=True)
    (7): ReLU()
    (8): Dropout(p=0.05, inplace=False)
    (9): Linear(in_features=2200, out_features=256, bias=True)
    (10): ReLU()
    (11): Dropout(p=0.05, inplace=False)
    (12): Linear(in_features=2200, out_features=128, bias=True)
    (13): ReLU()
    (14): Dropout(p=0.05, inplace=False)
  )
  (latent_layer): Linear(in_features=2200, out_features=64, bias=True)
  (decoder_layers): Sequential(
    (0): Linear(in_features=64, out_features=128, bias=True)
    (1): ReLU()
    (2): Dropout(p=0.05, inplace=False)
    (3): Linear(in_features=128, out_features=256, bias=True)
    (4): ReLU()
    (5): Dropout(p=0.05, inplace=False)
    (6): Linear(in_features=256, out_features=512, bias=True)
    (7): ReLU()
    (8): Dropout(p=0.05, inplace=False)
    (9): Linear(in_features=512, out_features=1024, bias=True)
    (10): ReLU()
    (11): Dropout(p=0.05, inplace=False)
    (12): Linear(in_features=1024, out_features=2048, bias=True)
    (13): ReLU()
    (14): Dropout(p=0.05, inplace=False)
  )
  (decoder_output): Linear(in_features=2048, out_features=1801, bias=True)
)
Number of parameters = 15,362,121
Moving model to cuda
Epoch 0

Loss = 7.3953e-01, PNorm = 231.3605, GNorm = 0.1273, lr_0 = 8.4906e-05
Validation sid = 0.424478
Epoch 1

Loss = 4.1761e-01, PNorm = 231.4125, GNorm = 0.1420, lr_0 = 7.0000e-05
Validation sid = 0.357598
Epoch 2

Loss = 3.2551e-01, PNorm = 231.4930, GNorm = 0.1408, lr_0 = 7.0000e-05
Validation sid = 0.277295
…
Number of tasks = 1801
Splitting data with seed 0
Total size = 8,551 | train size = 6,840 | val size = 855 | test size = 856
Pre-normalizing training targets
Building model 0
Loading mpn parameters from model/test/model_0.pt
Loading pretrained parameter "encoder.encoder.W_i.weight".
Loading pretrained parameter "encoder.encoder.W_h.weight".
Loading pretrained parameter "encoder.encoder.W_o.weight".
Loading pretrained parameter "encoder.encoder.W_o.bias".
MoleculeModel(
  (encoder): MPN(
    (encoder): MPNEncoder(
      (dropout_layer): Dropout(p=0.05, inplace=False)
      (act_func): ReLU()
      (W_i): Linear(in_features=147, out_features=2200, bias=False)
      (W_h): Linear(in_features=2200, out_features=2200, bias=False)
      (W_o): Linear(in_features=2333, out_features=2200, bias=True)
    )
  )
  (qnn_layers): ModuleList(
    (0-549): 550 x <Quantum Torch Layer: func=qnode>
  )
  (ffn): Sequential(
    (0): Dropout(p=0.05, inplace=False)
    (1): Linear(in_features=2200, out_features=2200, bias=True)
    (2): ReLU()
    (3): Dropout(p=0.05, inplace=False)
    (4): Linear(in_features=2200, out_features=2200, bias=True)
    (5): ReLU()
    (6): Dropout(p=0.05, inplace=False)
    (7): Linear(in_features=2200, out_features=1801, bias=True)
  )
)
Number of parameters = 13,661,601
Moving model to cuda
Epoch 0

Loss = 6.4221e-01, PNorm = 227.1351, GNorm = 0.2575, lr_0 = 8.4890e-05
Validation sid = 0.544580
Epoch 1

Loss = 5.3614e-01, PNorm = 227.1443, GNorm = 0.2358, lr_0 = 7.0000e-05
Validation sid = 0.540482
Epoch 2

Loss = 5.2862e-01, PNorm = 227.1534, GNorm = 0.1592, lr_0 = 7.0000e-05
…
Number of tasks = 1801
Splitting data with seed 0
Total size = 8,551 | train size = 6,840 | val size = 855 | test size = 856
Pre-normalizing training targets
Building model 0
Loading mpn parameters from model/test/model_0.pt
Loading pretrained parameter "encoder.encoder.W_i.weight".
Loading pretrained parameter "encoder.encoder.W_h.weight".
Loading pretrained parameter "encoder.encoder.W_o.weight".
Loading pretrained parameter "encoder.encoder.W_o.bias".
MoleculeModel(
  (encoder): MPN(
    (encoder): MPNEncoder(
      (dropout_layer): Dropout(p=0.05, inplace=False)
      (act_func): ReLU()
      (W_i): Linear(in_features=147, out_features=2200, bias=False)
      (W_h): Linear(in_features=2200, out_features=2200, bias=False)
      (W_o): Linear(in_features=2333, out_features=2200, bias=True)
    )
  )
  (ffn): Sequential(
    (0): Dropout(p=0.05, inplace=False)
    (1): Linear(in_features=2200, out_features=2048, bias=True)
    (2): ReLU()
    (3): <Quantum Torch Layer: func=qnode>
    (4): ReLU()
    (5): Dropout(p=0.05, inplace=False)
    (6): Linear(in_features=2048, out_features=2048, bias=True)
    (7): ReLU()
    (8): Dropout(p=0.05, inplace=False)
    (9): Linear(in_features=2048, out_features=1801, bias=True)
  )
)
Number of parameters = 12,394,271
Moving model to cuda
Epoch 0
Fold 0
{'activation': 'ReLU',
 'atom_messages': False,
 'batch_size': 50,
 'bias': False,
 'bias_ffn': True,
 'checkpoint_dir': None,
 'checkpoint_path': None,
 'checkpoint_paths': None,
 'config_path': './recommended_config.json',
 'convergence_margin': 100000000.0,
 'crossval_index_dir': None,
…
Number of tasks = 1801
Splitting data with seed 0
Total size = 8,551 | train size = 6,840 | val size = 855 | test size = 856
Pre-normalizing training targets
Building model 0
Loading mpn parameters from model/test/model_0.pt
Loading pretrained parameter "encoder.encoder.W_i.weight".
Loading pretrained parameter "encoder.encoder.W_h.weight".
Loading pretrained parameter "encoder.encoder.W_o.weight".
Loading pretrained parameter "encoder.encoder.W_o.bias".
MoleculeModel(
  (encoder): MPN(
    (encoder): MPNEncoder(
      (dropout_layer): Dropout(p=0.05, inplace=False)
      (act_func): ReLU()
      (W_i): Linear(in_features=147, out_features=2200, bias=False)
      (W_h): Linear(in_features=2200, out_features=2200, bias=False)
      (W_o): Linear(in_features=2333, out_features=2200, bias=True)
    )
  )
  (ffn): Sequential(
    (0): Dropout(p=0.05, inplace=False)
    (1): Linear(in_features=2200, out_features=2048, bias=True)
    (2): ReLU()
    (3): <Quantum Torch Layer: func=qnode>
    (4): ReLU()
    (5): Linear(in_features=11, out_features=2048, bias=True)
    (6): ReLU()
    (7): Dropout(p=0.05, inplace=False)
    (8): Linear(in_features=2048, out_features=1801, bias=True)
  )
)
Number of parameters = 8,222,495
Moving model to cuda
Epoch 0

Loss = 1.3310e+00, PNorm = 219.1727, GNorm = 0.1464, lr_0 = 8.4890e-05
Validation sid = 0.581437
Epoch 1

Loss = 5.2761e-01, PNorm = 219.2892, GNorm = 0.0433, lr_0 = 7.0000e-05
Validation sid = 0.538034
Epoch 2

Loss = 5.0938e-01, PNorm = 219.3575, GNorm = 0.0361, lr_0 = 7.0000e-05
Validation sid = 0.524997
…
